result/sample_en/model/topic_embeddings.safetensors (safetensors, 4696 bytes, 1 tensors)

topic_embeddings f4 [3, 384]
00000000: de8b 6dbc 82a2 2f3c b5c8 8eba 3352 2c3c
00000010: 37b9 ff3c 0be5 45bc 7d72 d83c 54b9 cb3c
00000020: 6c7d 21bc 4c37 8339 fd4e 9539 ed3d 04bc
00000030: 9982 b63c 862c d63c cecf be3c 5789 18bc
00000040: 9a6d f03b 8ca9 06bd 2766 4bbd 26b6 0abc
00000050: 293e 00bc 953a 09bd 9f8c a53b 2464 6ebc
00000060: 3e40 0fbc 9db6 14bb 7220 adbb a510 75bc
00000070: f5ca bfbc c42b c6bb 5b17 c7bc 3398 503c
00000080: 4e64 a6bc 735d ad3b edd2 283c 4374 f63c
00000090: 1b2e 603b dc04 f1bb 5a41 013c e309 51bc
000000a0: 7128 ed3c bc39 3bbd 8eee 38bb d8bb fbbb
000000b0: c4ad 8c3c 4cf8 7fbc 4002 063d c057 513c
000000c0: 8e57 7ebc 8198 ef3b 6b38 f6bb e5ba f83c
000000d0: e38f 263c 8f88 87bc c761 8f3c 27dd d3bb
000000e0: f45b 5abb 0c73 acbc 4ce3 3d3c c676 f63b
000000f0: b25d 3cb8 d8ea 6b3c 7155 c73b 4f07 d5bc
00000100: 957a 843c 334e d7bc f728 72ba 2f68 5d3b
00000110: a65f 00bc 04ef 6c3c 6d9d ef3c 8e9a 0ebd
00000120: 5613 acbc 8e82 32bc 4513 99bc ba9c 20bc
00000130: 72f1 b13c 243f 353c 9565 043c 2b93 babc
00000140: e032 d83c 839e efbc 30b7 2b3b 8b25 e7bc
00000150: c43e 52bc b427 9abc dcba 033c d4b7 29bb
00000160: c614 053c 5fc4 683c b89e 333d 4779 ff3c
00000170: 1de0 373c f8d1 c63c f608 8a3c 3696 ed3a
00000180: 449b 05bc 0d8a c33b 6a3d 2bbc b38b 173d
00000190: 5626 f93c da0d 723d 0199 90bb 43e1 cbb8
000001a0: 193c 04bd fdd3 b5bc 1351 35bc 4ae9 9d3b
000001b0: d2bc 9ebb 2724 703c 6ef0 31bd 1eb4 9e3c
000001c0: 580a 8bbc d2f2 abbc 015a 30bd d24a dd3c
000001d0: 54da 06bd 2c51 d93b 1568 b9ba 4b72 843b
000001e0: fae2 8a3c 4bc1 053d 7674 48bc b193 8b3a
000001f0: 2c90 5e3c 5b36 893c f5e4 99bc 0925 6d09
00000200: 3ad1 8dbc c345 283c 71fd 753c 583b 55bc
00000210: 4408 4dbd 964a 3e3c a645 0ebc 1c2b ea3b
00000220: 7597 22bd 5af3 b0bb 114d 11bd c0e7 cf3a
00000230: a601 d3bb 4496 353c d4d3 013d b618 21bd
00000240: e015 5dba 15ef 98bc 3782 d63c 2bef 533c
00000250: 0e79 013d e708 b1bc ec55 b03c b75e a3bb
00000260: b42d 013d b628 cb3c 71fe 053c 85e2 213b
00000270: 01d5 4a3c 1c32 983c 051e dbbb a9f0 beba
00000280: d2ac a8bb 6db2 77bc 04a3 3ebd 4573 13bc
00000290: 87ac 81bc 9eb6 66bc 4740 aabc 8749 30bc
000002a0: d684 07bd d61b c13c 95b0 14bc c03b 45bc
000002b0: 7ffd 8cbc 6f78 8a3c d5c0 1ebc b93c 6dbb
000002c0: 9d65 acbc fb95 40bc c9fe 2dbb 61e8 413b
000002d0: 2006 00bc 8d40 b9bb ade9 f6ba a7aa 07bc
000002e0: 723f 90bb 9564 09bd 85bb 853c db91 803c
000002f0: 9843 0c39 9049 81bb 89ed 48bd 48a9 183d
00000300: 873c e3bc 6383 093d 69e7 6d3c 85c9 0e3c
00000310: d640 aebc c734 843c 571b 183c e0a0 043c
00000320: 2449 313b 4f58 7b3b 58fd bebb e384 8839
00000330: 938e 4a3c 66ac d03c 327d 223c 6551 e63c
00000340: bdc1 07bc 7cab a43b f512 5b3d e7d9 b7bc
00000350: 18ed 903b 46b0 8f3c ba2f 24b9 f7f3 8bbc
00000360: 0596 2a3c 1312 fa3a 3ef4 00bd 6fb8 8ebc
00000370: c4f7 bf3c 5215 873c 23f2 55bb b837 b989
00000380: f9d9 633b da10 e03b 3c3b 83bc 9230 2a3c
00000390: e7b0 d13b e5bd 80bc ce02 923c 40b8 c23c
000003a0: 58be 063c 10b2 583b 69f8 adbb 2b40 b1ba
000003b0: b8ae 173d ccdd 2a3c 758d 1cbc 1729 afbc
000003c0: 5bf5 fd3c 82bc b33c 95b0 86bc ad94 4abc
000003d0: ba6b 633c 8df6 da3c 3f5e 3cbc a7fb 043d
000003e0: f9d7 28bd bc01 513c 4187 183b 6580 00bd
000003f0: 8f24 1cbd 2824 cebb 4b8e c1bb 374f 40bc
-0.014498679 0.010719897 -0.0010893556 0.010517645 0.031216247 -0.012078534 0.02642178 0.024868645
-0.009856563 0.00025027466 0.00028478345 -0.008071405 0.02227907 0.026144277 0.023292448 -0.009310088
0.0073372843 -0.032876536 -0.049657967 -0.008466279 -0.00782732 -0.033503134 0.0050521637 -0.014550243
-0.008743344 -0.0022691854 -0.005283409 -0.014957582 -0.023412207 -0.0060476977 -0.024303129 0.0127316
-0.0203115 0.005290681 0.010304195 0.030084735 0.0034207169 -0.0073553156 0.007889116 -0.012758705
0.028949948 -0.045709357 -0.0028218362 -0.007682305 0.017172702 -0.015623163 0.03271699 0.012777269
-0.015523804 0.007311881 -0.0075140498 0.030362556 0.010166141 -0.016544608 0.017502679 -0.0064655724
-0.0033318968 -0.021050952 0.011589836 0.007521483 -4.4909953e-05 0.014399253 0.0060831835 -0.026004462
0.016171733 -0.026282405 -0.00092376716 0.0033784022 -0.007835304 0.014461283 0.029249871 -0.034815364
-0.021005314 -0.0108953845 -0.018685946 -0.0098029915 0.021721575 0.011062417 0.00808086 -0.022775253
0.026391447 -0.029250389 0.0026201718 -0.028216144 -0.012832347 -0.01881776 0.008040156 -0.0025896924
0.008122629 0.014206975 0.043852538 0.03118576 0.011222866 0.024270043 0.016849976 0.0018126431
-0.008154694 0.0059673847 -0.010451654 0.036998462 0.030413788 0.05909524 -0.0044127707 -9.7217526e-05
-0.032283876 -0.02219581 -0.011066693 0.00481907 -0.0048442865 0.014657057 -0.043442182 0.019372996
-0.016972706 -0.02098981 -0.043054584 0.027013216 -0.032923058 0.006631991 -0.0014145399 0.004041945
0.016953934 0.03265504 -0.012234798 0.0010648874 0.013584178 0.016749552 -0.018785933 2.8545251e-33
-0.017311681 0.010270539 0.015014038 -0.013014637 -0.05005671 0.011614462 -0.008683598 0.0071462523
-0.039695222 -0.0054001035 -0.035473887 0.0015861914 -0.0064394055 0.011083189 0.031696156 -0.039330207
-0.00084337406 -0.01866869 0.026185138 0.01293544 0.031609587 -0.02161069 0.021525346 -0.004985656
0.031537727 0.024799686 0.008178339 0.0024701667 0.012379886 0.018578582 -0.006686928 -0.0014567572
-0.005147555 -0.015118224 -0.046542183 -0.00899965 -0.015829338 -0.014081625 -0.020782603 -0.010759718
-0.033085667 0.023572844 -0.009075304 -0.012038171 -0.01721072 0.01690313 -0.009689529 -0.0036199524
-0.021044547 -0.011754508 -0.002654957 0.0029587972 -0.00781396 -0.005653447 -0.0018837951 -0.008280433
-0.0044020945 -0.033543188 0.016324768 0.01569455 0.00013376621 -0.003945537 -0.049054656 0.037270814
-0.027738823 0.033572566 0.0145205045 0.008715038 -0.02127115 0.016138447 0.009283862 0.008094996
0.0027051652 0.0038352197 -0.005828541 0.0002603895 0.012363094 0.025472831 0.009917544 0.028114984
-0.008285937 0.0050253253 0.053484876 -0.022442771 0.004422795 0.017540108 -0.00015658038 -0.017084105
0.010411744 0.0019078873 -0.031482928 -0.01742193 0.023433574 0.016489659 -0.0032645545 -4.4589528e-33
0.0034767373 0.0068379464 -0.016019456 0.010387557 0.006399262 -0.015715549 0.017823603 0.023769498
0.008224092 0.0033065118 -0.005309154 -0.0013523152 0.03703186 0.010428857 -0.00955521 -0.021381898
0.031000784 0.021940473 -0.016441623 -0.012364549 0.0138806645 0.026728893 -0.011497079 0.032466557
-0.041221593 0.012756761 0.0023273977 -0.031372447 -0.038120802 -0.0062909313 -0.005906855 -0.011737636
