result/sample_ko/model/topic_embeddings.safetensors (safetensors, 139864 bytes, 1 tensors)

topic_embeddings f4 [91, 384]
00000000: 740b cc3d 946c bdbb d246 f43c 9b12 fd3c
00000010: 0f10 62bb ff3d cb3d ca35 843e e2ad ac3d
00000020: 6576 983c 1245 2c3e 50c4 ef3d 6240 b9be
00000030: b086 413e 68f8 bb3d 7191 013e 2d83 753a
00000040: c042 a4bd 79cf d1bd 194b 4fbe 9105 97be
00000050: 0322 863d b714 463c 368a 053d 820d 1abe
00000060: 30c8 2bbd b153 d63c 7a7e 8c3d 66a5 0bbd
00000070: 8d8e 2abe a010 ea3c e276 4cbd 82f3 333d
00000080: 1ef2 5f3e 66ce 623e 382b a33c 2212 8e3d
00000090: 549d 89bd 01f7 503e aac2 f23b 9a1d 3c3e
000000a0: 400b f5bd 6e77 9dbd 35fc 093e a3cd a53d
000000b0: 9996 863d 5042 64bc 1643 c9bd 81eb 863d
000000c0: afd8 22be 655d 96bd 4535 113d c590 7cbd
000000d0: d7ce d7bd 0c1d ac3e 824f 343d dd4e 96be
000000e0: f499 023e 7819 0cbd b777 5dbd 3446 a93b
000000f0: 0d4c 933d 21cb f93d 30a4 f33b 39ec 153e
00000100: 658b 8dbe 881a 993d 21f8 5f3e faea 6d3e
00000110: b39f 9abd 652f 003e 4089 ea3c c624 5e3d
00000120: da6e 56be fc07 6a3d f97f c7bd 8a7f 1abc
00000130: 16ff cb3c f02a 953c 7553 f6bb ad61 d33c
00000140: e5ac ef3d 537b 88bd 5eec 253d df08 f3bd
00000150: 67ee 953c 36fe f8bc 5bf5 a1bd b14c dc3c
00000160: 6e1c 483d e651 53bd 1315 84be 440d 633d
00000170: 23c6 8e3e 9760 19bd 03b7 6fbe ac8a f33d
00000180: 1327 5b3c db8a f2bd 5416 d93d cccd 4d3e
00000190: a869 fc3c f4e5 3e3e d4d9 8cbd 4401 63be
000001a0: ceb8 ab3d afd5 cb3d 5d4f 8ebd 6ed2 09be
000001b0: dded 5aba 8c17 713c bdde 97be 5dfa 61bd
000001c0: 80cc debd 9d4e adbd b037 6d3d 2390 7cbe
000001d0: 4484 2abd f726 05bd 0928 c2bd 507f 5c3e
000001e0: d6be 263d 3a6c 30bd 9044 a4bd 1f7f 863d
000001f0: b2fc 943e 3d63 00be aa11 27be 9269 e63c
00000200: 1d20 e43d cfce 13be d032 703d 3830 a13c
00000210: 3f87 71be 21a1 ca3d fdf5 c0bc 2d14 32be
00000220: b24d 1c3e 1442 ddbc 3644 0bbe 4be6 16bd
00000230: c103 d6bc 226f 383e fcc0 0e3e db35 703d
00000240: 3ce1 97bb 84a2 9e3e 7ce5 93be 8962 80ba
00000250: f257 1e3e 224f 5d3e ac01 7b3e 4113 46be
00000260: a223 7a3d 0b8d 1a3e 810f 843d 566f 143d
00000270: d000 863e 3a7c aebd 3e0b d43d c50b 5abc
00000280: 2003 f7bd 9f80 3abd 4e30 093c 9c68 c73d
00000290: af63 05be bd48 1e3d ddcd 5ebd 98ef 2ebe
000002a0: fe98 85be ae87 ecbb c7bb ae3d fd36 f23d
000002b0: bec3 863e 52eb 933d 9f39 86bd a765 33be
000002c0: 6821 4fbe a245 0b3d 0f7b 60be dc96 70be
000002d0: 2e7c 41bc ef26 803c 1045 82be 41ba cd38
000002e0: 257a 51be cbfa da3d 04b3 0cbe a2ca f03d
000002f0: e9a4 2a3d 1541 b1bd 6831 2fbe 8917 9c3a
00000300: f12e e73d c728 a1be fe73 bbbd 8f40 4ebe
00000310: 0588 f23d ebc2 f03d d2ef 0d3e c968 e13b
00000320: 0ea2 d4bd 5495 793e 4a52 febd 1b54 5d3d
00000330: d62c 8b3d a89e 46bc 23fe 063e ac86 943d
00000340: 81c2 6abd cc0d 76bd 2343 43be 61b5 213e
00000350: b8d1 51bd 8313 5a3c 0c1f 293e f267 6ebe
00000360: 57b2 77be 313c 573e 8ecb b2be 7842 33bd
00000370: 4744 533e 486d 35be cd12 3fbe ccd6 5dbe
00000380: 0282 123d 74ea 803e d3ad 54be b46c adbd
00000390: 7c15 043d 89a0 8ebc c56e 1dbe a48a 0e3e
000003a0: 03d8 303d 882d c43d f500 36be d78e dfbd
000003b0: a031 2b3e b187 78bd e7e9 7dbd 6f90 a13d
000003c0: fb8a 0c3d 499b 113d e568 89bd f310 ea3d
000003d0: dd05 04be 821a ebbd d671 69be 5bfc 833e
000003e0: 9511 85bc bfe1 b23d 4ead 3e3d ec36 c5be
000003f0: 90e2 773e 1070 203e 5b6b 273e 08b9 fd3d
0.09963122 -0.005780766 0.029818926 0.03089266 -0.0034494435 0.09923934 0.25822288 0.08431603
0.018611142 0.16823223 0.117073655 -0.36181933 0.18899035 0.09178239 0.12653138 0.0009365555
-0.08020544 -0.102446504 -0.20243491 -0.29496434 0.06549456 0.0120899 0.03260251 -0.15044215
-0.04193896 0.026162954 0.06860061 -0.034093283 -0.16655941 0.02857238 -0.049918063 0.0439334
0.21869704 0.22149047 0.01991807 0.06937052 -0.06719461 0.20406725 0.0074084597 0.18370667
-0.119650364 -0.07688795 0.13475116 0.08095863 0.06571693 -0.013931826 -0.09827249 0.065878876
-0.1590297 -0.07342032 0.035451192 -0.0616615 -0.105374984 0.3361591 0.044021137 -0.29357043
0.12754041 -0.034203976 -0.054069247 0.0051658396 0.0719224 0.12196947 0.007435344 0.14640893
-0.27645412 0.074757636 0.21871997 0.23234168 -0.075499915 0.1251808 0.028629899 0.05423429
-0.20940724 0.05713652 -0.09741206 -0.009429822 0.024901908 0.01820895 -0.007517273 0.025803411
0.11702899 -0.06664147 0.04050862 -0.118669264 0.018302156 -0.030394655 -0.07908126 0.026892038
0.048855238 -0.051591776 -0.25797328 0.055432573 0.2788554 -0.03744563 -0.23409657 0.11891684
0.013376015 -0.11842891 0.10599962 0.20098037 0.0308121 0.18642408 -0.06877485 -0.22168452
0.08384858 0.09952866 -0.06948731 -0.13459179 -0.00083514844 0.014715087 -0.29662123 -0.055170406
-0.10878849 -0.0846226 0.057914436 -0.24664359 -0.041630045 -0.032507863 -0.09480292 0.21532941
0.04070934 -0.043071963 -0.0802089 0.06567215 0.2909904 -0.12537856 -0.16315332 0.028126512
0.111389376 -0.1443436 0.05864221 0.019676313 -0.23586749 0.09894014 -0.023554796 -0.17390509
0.15264013 -0.027009048 -0.13600239 -0.03684072 -0.026124837 0.18011144 0.13940805 0.05864511
-0.0046350043 0.30983365 -0.2888602 -0.0009794991 0.15463236 0.21612218 0.24512357 -0.19343282
0.06106914 0.15092866 0.0644827 0.03623899 0.26172495 -0.08519788 0.10353707 -0.01330847
-0.12061143 -0.04553282 0.008373333 0.097367495 -0.13026308 0.038643587 -0.054395545 -0.17083585
-0.26093286 -0.0072183227 0.085319094 0.118268944 0.26321214 0.07222618 -0.06553959 -0.17519246
-0.20227587 0.034001954 -0.21921943 -0.23495048 -0.011809392 0.015643565 -0.25443316 9.809854e-05
-0.2045675 0.10692366 -0.13740164 0.11757399 0.041661177 -0.086549915 -0.1710869 0.001190887
0.1128825 -0.31476423 -0.09152983 -0.20141815 0.1184235 0.11755928 0.13861015 0.0068789464
-0.10382472 0.2437337 -0.12418039 0.054035287 0.06795661 -0.012122788 0.13182883 0.07252249
-0.0573144 -0.06007175 -0.1906858 0.15791847 -0.051225394 0.013310316 0.1651575 -0.2328184
-0.24189125 0.21019055 -0.34920925 -0.04376456 0.20631514 -0.17717469 -0.18659516 -0.2166397
0.035768516 0.25178874 -0.20769434 -0.08467999 0.03224705 -0.017410534 -0.15374286 0.13920075
0.043174755 0.09578997 -0.17773803 -0.109159164 0.16718149 -0.06067628 -0.061990645 0.07888877
0.03431223 0.035548482 -0.0670946 0.11429014 -0.12892862 -0.11479665 -0.22797331 0.2577847
-0.016243735 0.08734464 0.046551995 -0.38518465 0.2420752 0.15667748 0.16349547 0.123888075
